…
<keras.engine.functional.Functional object at 0x7f69d55dc6d0>
Model: "model"
__________________________________________________________________________________________________
 Layer (type)                   Output Shape         Param #     Connected to                     
==================================================================================================
 input_2 (InputLayer)           [(None, 1)]          0           []                               
                                                                                                  
 embedding (Embedding)          (None, 1, 100)       300         ['input_2[0][0]']                
                                                                                                  
 input_1 (InputLayer)           [(None, 100)]        0           []                               
                                                                                                  
 flatten (Flatten)              (None, 100)          0           ['embedding[0][0]']              
                                                                                                  
 concatenate (Concatenate)      (None, 200)          0           ['input_1[0][0]',                
                                                                  'flatten[0][0]']                
                                                                                                  
 dense (Dense)                  (None, 1024)         205824      ['concatenate[0][0]']            
                                                                                                  
 batch_normalization (BatchNorm  (None, 1024)        4096        ['dense[0][0]']                  
 alization)                                                                                       
                                                                                                  
 leaky_re_lu (LeakyReLU)        (None, 1024)         0           ['batch_normalization[0][0]']    
                                                                                                  
 dense_1 (Dense)                (None, 100352)       102860800   ['leaky_re_lu[0][0]']            
                                                                                                  
 batch_normalization_1 (BatchNo  (None, 100352)      401408      ['dense_1[0][0]']                
 rmalization)                                                                                     
                                                                                                  
 leaky_re_lu_1 (LeakyReLU)      (None, 100352)       0           ['batch_normalization_1[0][0]']  
                                                                                                  
 reshape (Reshape)              (None, 28, 28, 128)  0           ['leaky_re_lu_1[0][0]']          
                                                                                                  
 conv2d_transpose (Conv2DTransp  (None, 28, 28, 128)  262272     ['reshape[0][0]']                
 ose)                                                                                             
                                                                                                  
 batch_normalization_2 (BatchNo  (None, 28, 28, 128)  512        ['conv2d_transpose[0][0]']       
 rmalization)                                                                                     
                                                                                                  
 leaky_re_lu_2 (LeakyReLU)      (None, 28, 28, 128)  0           ['batch_normalization_2[0][0]']  
                                                                                                  
 conv2d_transpose_1 (Conv2DTran  (None, 28, 28, 128)  262272     ['leaky_re_lu_2[0][0]']          
 spose)                                                                                           
                                                                                                  
 batch_normalization_3 (BatchNo  (None, 28, 28, 128)  512        ['conv2d_transpose_1[0][0]']     
 rmalization)                                                                                     
                                                                                                  
 leaky_re_lu_3 (LeakyReLU)      (None, 28, 28, 128)  0           ['batch_normalization_3[0][0]']  
                                                                                                  
 conv2d_transpose_2 (Conv2DTran  (None, 28, 28, 128)  262272     ['leaky_re_lu_3[0][0]']          
 spose)                                                                                           
                                                                                                  
 batch_normalization_4 (BatchNo  (None, 28, 28, 128)  512        ['conv2d_transpose_2[0][0]']     
 rmalization)                                                                                     
                                                                                                  
 leaky_re_lu_4 (LeakyReLU)      (None, 28, 28, 128)  0           ['batch_normalization_4[0][0]']  
                                                                                                  
 conv2d (Conv2D)                (None, 28, 28, 3)    3459        ['leaky_re_lu_4[0][0]']          
                                                                                                  
==================================================================================================
Total params: 104,264,239
Trainable params: 104,060,719
Non-trainable params: 203,520
__________________________________________________________________________________________________
Model: "sequential"
_________________________________________________________________
 Layer (type)                Output Shape              Param #   
=================================================================
 conv2d_1 (Conv2D)           (None, 14, 14, 64)        1792      
                                                                 
 leaky_re_lu_5 (LeakyReLU)   (None, 14, 14, 64)        0         
                                                                 
 dropout (Dropout)           (None, 14, 14, 64)        0         
                                                                 
 conv2d_2 (Conv2D)           (None, 7, 7, 128)         73856     
                                                                 
 batch_normalization_5 (Batc  (None, 7, 7, 128)        512       
 hNormalization)                                                 
                                                                 
 leaky_re_lu_6 (LeakyReLU)   (None, 7, 7, 128)         0         
                                                                 
 dropout_1 (Dropout)         (None, 7, 7, 128)         0         
                                                                 
 conv2d_3 (Conv2D)           (None, 4, 4, 256)         295168    
                                                                 
 batch_normalization_6 (Batc  (None, 4, 4, 256)        1024      
 hNormalization)                                                 
                                                                 
 leaky_re_lu_7 (LeakyReLU)   (None, 4, 4, 256)         0         
                                                                 
 dropout_2 (Dropout)         (None, 4, 4, 256)         0         
                                                                 
 flatten_1 (Flatten)         (None, 4096)              0         
                                                                 
 dense_2 (Dense)             (None, 1)                 4097      
                                                                 
=================================================================
Total params: 376,449
Trainable params: 375,681
Non-trainable params: 768
_________________________________________________________________
32
(32, 100)
1/1 [==============================] - ETA: 0s1/1 [==============================] - 1s 536ms/step
…
